checkpoint.pth (torch_old, 21733 bytes, 8 tensors)

fc1.weight f4 [64, 37]
000000 04 b6 12 be 1e a7 28 3e 70 83 98 bc c1 ed ec 3d
       -0.14327246 0.1647 -0.018617362 0.115687855
000010 d2 38 50 3d a3 cd 29 bd 1a c3 22 bd f4 82 69 3e
       0.050835438 -0.041455876 -0.039736845 0.22803861
000020 3e ce 3a 3e e1 3c f2 3d 34 ed 26 bd c0 d5 0a bd
       0.18242738 0.11828018 -0.04075356 -0.033895254
000030 ec 4e 1a be 26 d5 6d bd dc 33 a6 be ad 20 61 3d
       -0.15069169 -0.058064602 -0.3246144 0.054962803
000040 cf 59 6a 3c 0e fd c0 3d 36 e9 09 3c 84 37 5f be
       0.014303639 0.09423266 0.008417418 -0.21798521
000050 bf 69 b9 3d d9 59 2f 3e 05 fa 06 3d 42 4e 19 3d
       0.090533726 0.17124118 0.03295328 0.037428148
000060 ed bb f6 bd d8 69 d3 3d db 2f 0f bd 3f 2e 91 bd
       -0.12047563 0.103229225 -0.034957748 -0.07088899
000070 2b ad b5 bd f2 cd 8b be 96 ee fd 3c 6c db 0a 3e
       -0.0887092 -0.2730556 0.030997556 0.13560265
000080 60 43 af bd 0a d1 11 be 2b 6d 13 be 85 2a a6 be
       -0.08557773 -0.14239898 -0.14397113 -0.32454315
000090 ea 20 57 bc a6 c8 9b bd 8b 29 71 3d 34 70 1a 3e
       -0.013130406 -0.0760663 0.05887751 0.15081865
0000a0 57 71 50 3d d0 0b a7 3d 18 99 7a be 5a f2 c2 bd
       0.05088934 0.0815655 -0.24472463 -0.09518881
0000b0 27 8b 8b 3c 6b fb c7 bd 3b 8a 8d 3e 48 ca 29 bd
       0.017034126 -0.09764751 0.27644524 -0.041452676
0000c0 f2 95 ed bd f8 4d 73 ba 19 10 73 3d 77 ee cb be
       -0.116008654 -0.00092813326 0.059341524 -0.39830372
0000d0 e1 01 8b 3d b1 e9 59 be 38 f7 2c 3d 40 41 1f be
       0.06787468 -0.21280552 0.042227954 -0.15552235
0000e0 16 1d 4a be 65 04 07 be 73 2b c0 be cc c3 a4 3d
       -0.19737658 -0.1318527 -0.3753315 0.08045158
0000f0 b8 c6 a1 be 10 6c ac be 02 0b 67 bb e9 83 5e bd
       -0.31596923 -0.33676195 -0.0035254364 -0.054325018
000100 62 f6 69 be bd 83 d9 be a0 25 1d be df 06 d4 bc
       -0.22847894 -0.4248332 -0.15346384 -0.025882183
000110 b4 b8 e5 bc a7 96 4f 3e 8b ad 0a bf b1 c8 4e bf
       -0.028042175 0.20272313 -0.54171056 -0.8077498
000120 1b 50 7d be 2d 62 21 3c 6f 5f 8a 3e eb ab 57 3e
       -0.24737589 0.009850067 0.27025935 0.21061675
000130 f1 f9 bf 3c fc ec 20 bd 53 2b 1e be 43 73 89 3e
       0.023434611 -0.039288506 -0.15446214 0.2684575
000140 ba 0d 54 be ce 0c 65 3c f3 5e 27 be 34 99 49 bf
       -0.20708361 0.013980104 -0.16344814 -0.78749394
000150 ff 6c 7c 3e f4 c0 b3 bd b3 3e 69 bd 7f 01 66 bd
       0.24650954 -0.08777037 -0.05694456 -0.05615377
000160 27 a6 cd bc f1 cc 93 3d f4 72 84 3d 83 8a d9 3d
       -0.025103642 0.07216824 0.06467238 0.10622122
000170 50 54 24 3e 06 b3 b4 3d f4 f1 6d 3d 1e e8 07 bd
       0.16047788 0.088232085 0.058092073 -0.03318035
000180 6a 3b aa bd 79 d1 16 bd 07 63 d3 be 6e 8a 92 bb
       -0.083121136 -0.036820862 -0.4128649 -0.0044720685
000190 01 51 a6 3c cd 9a 03 3e fb 3c 43 3e e8 ad bb 3e
       0.020302298 0.1285202 0.19066231 0.36656117
0001a0 1d b7 b9 bd 8d 21 6f bd 2b a1 7f bd bf 7e 01 bc
       -0.09068129 -0.058381606 -0.06240956 -0.007903754
0001b0 69 8c 81 3e 76 f0 84 bd ed bb 36 3c f1 39 ef 3e
       0.25302437 -0.06491177 0.011153203 0.46723893
0001c0 55 e3 2a bf 71 d4 d7 be c7 6c 10 bf 80 ef 07 c0
       -0.6675313 -0.42154267 -0.5641598 -2.123993
0001d0 e8 67 15 3b f0 24 83 bc 1b e5 4d 3d ba 10 32 3d
       0.0022797529 -0.016008824 0.05026732 0.043472983
0001e0 c7 d0 33 3d 8e d7 f7 bc 6c eb f4 3b f8 3c 32 bc
       0.043900277 -0.030254152 0.0074743535 -0.010878794
0001f0 93 37 c6 bc ec 4d 8b bc f9 8e c2 bd b7 f9 d2 bb
       -0.024196422 -0.01700493 -0.09499926 -0.0064384597
000200 5f 03 28 3d 1c e3 95 3d 83 59 2b 3e 29 a6 1c bd
       0.04101884 0.07318708 0.16733365 -0.0382444
000210 34 37 22 3c e7 d9 81 3c 27 ce dd 3c 98 bd 1c 3d
       0.009900857 0.015850974 0.02707584 0.03826675
000220 a3 59 96 ba f3 1e e6 3d 96 60 e6 3d a1 79 08 3e
       -0.0011470806 0.11236372 0.11248891 0.13327648
000230 66 94 dd 3d a6 f0 9c 3d db 28 d3 3d 21 95 f4 3d
       0.108193204 0.076630875 0.10310527 0.119425066
000240 fb 3d cb 3d c3 9f 0a 3c 5b 37 c5 bb cd 34 a2 ba
       0.09923931 0.008460942 -0.006018562 -0.0012375355
000250 cb ee 06 bc 96 fa 42 be 06 36 83 bd 87 f4 94 be
       -0.008235644 -0.19040903 -0.064067885 -0.2909281
000260 d0 9c 28 3d b9 a0 82 be a0 d8 14 be 74 f5 8e 3e
       0.041165173 -0.25513247 -0.14535761 0.2792164
000270 56 d6 6c bc 08 05 54 bf af 15 a1 bd 5a d5 ae bd
       -0.014455399 -0.8282018 -0.07865464 -0.08536787
000280 31 70 99 3c d0 6a 41 be 52 5d 3a bd 6c 9a 7b bb
       0.018730255 -0.18888402 -0.045499153 -0.0038391603
000290 e9 aa 65 be 07 11 28 3d 9e 30 38 be 5c 54 91 be
       -0.22428478 0.041031864 -0.17987296 -0.28384674
0002a0 ad 5a a4 3c 26 ce e2 bb b4 60 26 bd 96 30 47 be
       0.020062769 -0.0069215475 -0.040619567 -0.19452128
0002b0 3d 33 1e bc 24 ac 2f be fc 20 85 3d b0 7c b6 3e
       -0.009655771 -0.1715551 0.06500432 0.35642004
0002c0 07 e5 a6 be b9 b0 84 bf f6 2f d4 3d 11 32 ec bd
       -0.3259661 -1.0366431 0.1036071 -0.11532987
0002d0 7e 88 bc 3d 81 75 d3 be a5 9f 83 be 30 13 6c 3d
       0.09205721 -0.41300586 -0.25707737 0.057635486
0002e0 8e 8c 3f 3c 8f 4f 23 bc 1f ff cf 3c 61 2d 02 bd
       0.011691226 -0.009967699 0.025390206 -0.031781558
0002f0 b1 f4 99 bd f5 f6 48 bd a1 13 cb 3e 1c 98 e8 bd
       -0.07517374 -0.04906364 0.39663413 -0.113571376
000300 41 b0 f7 be 10 d8 a0 be 66 7e eb bf 61 04 a8 bd
       -0.4837666 -0.31414843 -1.8397949 -0.0820396
000310 a2 42 83 bd 50 d4 c1 3c e7 e2 b7 bc 1a 03 b8 3b
       -0.064091936 0.023660809 -0.022447063 0.005615604
000320 d3 c1 0d bd 86 70 4b 3d 71 a9 c1 3c 82 a2 9a bc
       -0.034608673 0.049667858 0.023640366 -0.018876318
000330 91 d4 55 bc ef 32 bf 3d bd cc 8d 3d a6 d2 93 3d
       -0.013051168 0.09335887 0.06923816 0.072179124
000340 c9 bd f6 3d 57 61 3f bd 80 48 87 3b a8 4e ff 3b
       0.120479174 -0.04672369 0.0041285157 0.007791359
000350 a4 4f 9b 3d ce fb 18 bd 80 f0 d3 bd 7e 99 99 3b
       0.075835496 -0.037349515 -0.10348606 0.004687487
000360 48 8f 8f ba cf 16 1f 3d 8b e2 2b 3b c7 0b be bd
       -0.0010952735 0.03884011 0.002622756 -0.0927959
000370 45 1a b3 3c c1 0e 83 3c 21 91 e0 bd d3 5c c0 bc
       0.021863112 0.015998246 -0.10965181 -0.023481762
000380 5a 0b 75 3e 21 fd 23 bd 1d 29 c9 be 6c eb 97 3d
       0.23930112 -0.040036324 -0.3928918 0.0741795
000390 3d 83 ce 3d fb 74 fc be a2 45 1a be a1 c3 1a be
       0.100836255 -0.49308 -0.15065625 -0.15113689
0003a0 3c bc 78 bc ef 2f b6 3d 05 9d 4e be fa 82 47 bd
       -0.015181597 0.08895861 -0.20177086 -0.048708893
0003b0 12 05 27 be 08 30 2b be ca de 92 be df cd cc 3d
       -0.16310528 -0.16717541 -0.286856 0.10000204
0003c0 12 92 36 3e 37 b4 bf be 85 f9 0f 3e f6 ee 2e bd
       0.17829159 -0.3744218 0.14060028 -0.04270836
0003d0 c5 d4 86 be 2f 69 ac be e8 55 8c be 67 c3 0f 3e
       -0.26334205 -0.33674 -0.2740929 0.14039384
0003e0 31 f6 30 bf a8 2c 5d be c8 8b 70 be 59 a0 ce bd
       -0.6912566 -0.21599066 -0.23490822 -0.10089178
0003f0 b5 03 d4 3d 22 b3 11 3e 6a 79 49 be c1 c3 b6 be
       0.103522696 0.1422849 -0.19675222 -0.35696223

fc1.bias f4 [64]
000000 24 ac ed 3d c4 bb 08 be b6 b2 50 bd 46 87 85 bd
       0.11605099 -0.13352877 -0.050951682 -0.06519942
000010 89 3b 2d 3e d3 58 6a bc d3 a7 d4 bd 43 e0 24 3d
       0.16917242 -0.014303404 -0.103835724 0.040252935
000020 f7 40 32 3e c7 2b fc bd 44 c7 94 3e 32 ad 2d 3e
       0.17407595 -0.12313037 0.29058278 0.169606
000030 3a 9a bf 3d 78 35 02 3d 68 bc 00 bb 65 a8 bd bd
       0.09355588 0.031789273 -0.001964355 -0.09260634
000040 29 18 85 bd a9 eb ab bd 59 85 13 3e 4e 9c 57 be
       -0.06498749 -0.08394558 0.14406337 -0.2105572
000050 9f 1a 1c bc 1c 14 5b 3e ba ed 11 bd 5b 59 fa bd
       -0.009527831 0.2139439 -0.035627104 -0.122240745
000060 70 13 eb bd 03 c5 7c 3e 8a f9 32 bd 24 40 d5 bd
       -0.11478317 0.24684529 -0.04369501 -0.104126245
000070 a4 ef 57 3c a3 b2 18 bc 8e 7a 75 be cc 0d f2 bd
       0.013179693 -0.009319934 -0.23972532 -0.11819038
000080 e0 cc 4e 3e 5e 68 26 3c f3 a3 25 be fe c9 7d 3d
       0.20195341 0.010156719 -0.16175823 0.061960213
000090 1e b4 8c bd 86 74 0f 3e 40 bc 15 bd 39 5b 45 be
       -0.06870292 0.14009294 -0.036556482 -0.1927308
0000a0 14 d1 93 bd 64 8d 65 3c df b2 1d bd 60 11 12 3d
       -0.07217613 0.014010761 -0.038500663 0.0356611
0000b0 6d 96 23 3d 89 fc fc 3d cb 68 02 3e 31 c1 22 be
       0.03993838 0.12352855 0.12735288 -0.15894009
0000c0 5c d0 ec bd 7f af 0f bd 7c 92 89 be 38 fe 39 3e
       -0.11563179 -0.035079475 -0.2686957 0.18163383
0000d0 b3 8f 04 3d 93 dc c5 bd 6e 72 20 be a5 ac e8 3c
       0.032363605 -0.09661212 -0.15668651 0.028402636
0000e0 d8 ad 20 bc e8 ea bc bd ce 1c 39 be 71 f6 12 be
       -0.009807073 -0.09224492 -0.18077394 -0.14351822
0000f0 11 fa cf 3c 4e 46 59 3d 0c c7 30 bc c3 d3 94 3d
       0.025387796 0.053045563 -0.010789644 0.07266953

fc2.weight f4 [32, 64]
000000 ce 95 8c 3d 22 6a 70 3d b0 b1 26 3e 7b 0c c4 3d
       0.068645105 0.058694966 0.1627872 0.09572693
000010 8b 25 45 3e cc b6 07 be dd d6 63 be cc fd 6e 3d
       0.19252603 -0.13253325 -0.22249933 0.05834751
000020 ca 24 83 3d d3 eb 48 3f cf 0d 9f 3d 93 ad 4d be
       0.06403501 0.7848484 0.07766306 -0.20085745
000030 0b 22 fb bc 38 7b 4c bd 62 8e d4 3b f2 5f dd bc
       -0.030655881 -0.049922198 0.0064867 -0.02702329
000040 ce d3 2a bb 81 b5 51 bd a3 78 8e bd eb 9b ab 3d
       -0.0026066187 -0.051198486 -0.069566034 0.08379348
000050 bd 4c 0f be da 27 cb bc 6c a1 a7 bd 34 de 03 bf
       -0.13994117 -0.024799276 -0.08185086 -0.5151093
000060 4b 96 58 be 63 df 63 be 15 e5 3c be 92 a7 1c bf
       -0.21151082 -0.22253184 -0.18446763 -0.6119319
000070 c5 d6 cc 3b d8 ea 94 3e 21 8b a0 3e 6b ec de 3d
       0.0062511885 0.29085422 0.31356147 0.10884937
000080 48 7f 24 3e 5d e5 4b 3e a6 64 b4 3d c2 0f 8a be
       0.16064179 0.19911714 0.0880826 -0.26965147
000090 a5 87 92 3c 9b 60 08 3c b5 70 69 3f 46 1a a8 be
       0.017886946 0.008323814 0.911876 -0.32832545
0000a0 16 68 45 be 9d 91 58 bd 16 81 b9 3c e5 ec c5 bd
       -0.19277987 -0.052873243 0.02264456 -0.09664325
0000b0 99 53 f6 3d 34 d2 1f be b1 5e f8 bd 76 e9 1b be
       0.12027664 -0.1560753 -0.12127436 -0.15225777
0000c0 9a b8 d6 bd 23 77 a9 bd de 6d 34 be 0d 50 4f be
       -0.10484429 -0.08274677 -0.17620036 -0.2024538
0000d0 47 d6 3c be 4c 98 ab be 66 2d 4c 3e b3 2b f3 3c
       -0.18441115 -0.3351463 0.19939193 0.029683923
0000e0 27 78 1d bb c6 f8 04 3e 1e cb 17 3d 3b 7d 0b 3e
       -0.0024027915 0.12985525 0.037058942 0.1362199
0000f0 0c 6b 5a 3d f0 50 ba be 69 b4 2d be 49 48 1c 3e
       0.053324744 -0.36389875 -0.16963352 0.1526195
000100 47 68 36 3d 32 d3 f0 3d 6b 48 47 bc db 7f 1c 3f
       0.04453304 0.11759032 -0.012163262 0.6113259
000110 3f 60 d6 3d 38 70 0d 3e 77 a1 ff bd 45 87 5d 3d
       0.10467576 0.1381234 -0.12481969 0.05408408
000120 4d 61 88 bd 6e 7f 6a 3f ef 41 88 3d 0b 0c fa 3d
       -0.06659184 0.9160069 0.06653201 0.12209328
000130 b0 07 4d be 46 86 79 3e 9d 04 26 bd c9 3d 6e bd
       -0.20022464 0.24367628 -0.040531743 -0.05816439
000140 81 e2 22 3d de cc ba 3c ba 63 85 bd ff 88 94 3c
       0.039766792 0.022802766 -0.06513162 0.018131731
000150 51 d7 bb 3c 2d c2 bd bc b7 dd 15 3c 6c a9 c8 3e
       0.02292982 -0.02316388 0.009147099 0.3919176
000160 4d f2 57 3d 6e 51 82 3b 6b 48 c0 3e da 94 2a 3e
       0.05272131 0.0039769923 0.3755525 0.16658345
000170 26 71 69 ba ab 8d 8e be a7 db f8 3c 69 ca 61 be
       -0.0008905105 -0.2784246 0.030378176 -0.2204987
000180 1d fb 0f 3e 91 a4 9a 3e ce 57 e6 3d 01 a9 eb 3d
       0.14060636 0.3020368 0.11247216 0.11506844
000190 be f0 ad bb 43 77 8a 3c 21 40 a6 3e f7 4e 8e be
       -0.0053082397 0.016902572 0.324708 -0.2779462
0001a0 bf df 8e 3d b1 34 a9 3b 8e b5 2a 3e b6 ae d2 3d
       0.0697627 0.005163752 0.1667082 0.1028723
0001b0 57 0c f7 3d 5d 23 c7 bd 96 0c f2 3c d6 d7 13 be
       0.120629005 -0.09723542 0.029547017 -0.14437804
0001c0 a7 40 03 3d a7 f1 b2 be a9 d4 3a bc 6c a5 83 3e
       0.03204408 -0.3494999 -0.011403241 0.25712144
0001d0 74 be ad 3d b8 bc 70 be fc ed 11 be 73 3c bb 3e
       0.08483592 -0.2350949 -0.1425094 0.36569557
0001e0 69 d7 0d be c0 e6 ac bd a2 d1 a3 3c 9a df 79 3e
       -0.13851704 -0.084424496 0.019997422 0.24401703
0001f0 a7 83 1f be fd 65 b4 3d f5 aa 8b bd db d7 88 3d
       -0.15577565 0.08808515 -0.06819717 0.06681796
000200 fc 8c cf 3c 07 fe d0 3c 6a b8 1c 3e 70 20 98 3e
       0.025335781 0.025511755 0.15304723 0.29712248
000210 2c a7 0f 3d eb c0 95 3d cc 57 20 be 5a 81 48 3d
       0.035071537 0.07312187 -0.15658492 0.048951484
000220 3a bf 61 3e da 84 ad 3e 38 4e 68 3e 4d 2d 40 3c
       0.22045603 0.3389042 0.22686088 0.011729551
000230 a6 09 42 3e 11 6a 2d 3e 56 96 1a 3e 4a 45 72 3c
       0.18948993 0.16934992 0.15096411 0.014787028
000240 9b 7f 62 bd bc af 23 3e cb a0 4a 3e a9 1e 77 be
       -0.055297475 0.15985006 0.197879 -0.2413279
000250 f7 57 93 3c a2 9a 3e 3e ca 30 d7 3d 68 2b d6 3d
       0.01798628 0.18613675 0.10507353 0.10457498
000260 80 0c 3c 3d 98 1e f2 3d 7f 58 c9 3e 40 29 92 3e
       0.04591036 0.118222415 0.3932533 0.28547096
000270 e4 c5 34 be 0c e0 1c bd 9a 3c a0 3e ad 28 1a 3c
       -0.17653614 -0.038299605 0.31296235 0.009409112
000280 24 95 55 be 7a 55 66 3d 1c e1 c5 bd 20 0d 34 3e
       -0.20857674 0.05623386 -0.09662077 0.17583132
000290 1b b2 39 3e fc 1e 46 3e 6f 0f 8a 3e b9 94 90 3d
       0.18134348 0.19347757 0.269649 0.070596166
0002a0 fd ef 59 3d 8c 61 bd 3d bd 0b c0 be 73 8b 78 bd
       0.053207386 0.09247121 -0.37508956 -0.060679864
0002b0 62 fb c4 3c d2 5d 37 3e 9a 7b 31 3e 4c 82 70 bd
       0.02404565 0.17906883 0.17332307 -0.05871801
0002c0 f2 7b eb 3d e5 2b a0 be a0 5b b3 bc 46 57 c2 3d
       0.1149825 -0.3128349 -0.021894276 0.09489302
0002d0 8e 34 b2 bd 03 d6 7e 3d 2e dd b8 bd c2 94 38 3e
       -0.0870143 0.062215816 -0.09026562 0.18025497
0002e0 ef 3f 9a 3d 53 59 df bd 01 1e 72 3e f9 75 f9 3d
       0.075317256 -0.10905709 0.23644258 0.121807046
0002f0 9a 92 17 bd 8e 84 7d 3e f5 ba 06 3e 73 53 43 3d
       -0.037005045 0.24757597 0.13157256 0.047687005
000300 7f 21 f8 bd 1c 82 3d be ea 95 19 3e 26 c5 37 3e
       -0.12115764 -0.18506664 0.14998594 0.179463
000310 25 c3 a3 bd 29 a7 08 3e ed 18 1d 3e 23 f0 78 be
       -0.07996205 0.13345017 0.1534154 -0.24310355
000320 5d 32 8d bd 4d d1 dd be 68 7c 9a bc 64 98 46 3e
       -0.06894372 -0.43323746 -0.01885815 0.1939407
000330 ee 85 2c be fe 48 2a 3c af 5a 90 bd b8 9c 47 be
       -0.16847965 0.010393379 -0.070485465 -0.19493377
000340 6d c7 9c 3c 7e 58 25 bd b2 aa 8f bd d4 27 27 be
       0.019138062 -0.040367596 -0.070149794 -0.16323787
000350 73 69 8b 3e 06 aa 58 3e ce c1 b2 3d bd f3 20 3e
       0.2722889 0.21158609 0.087283716 0.15717979
000360 81 e4 e5 3d 20 db 03 3e 64 d1 01 be 53 a1 06 3d
       0.11225224 0.12876558 -0.12677532 0.032868695
000370 83 e4 19 3e b6 72 81 be 50 26 70 3d 4a b1 2a be
       0.15028577 -0.2528283 0.058630288 -0.16669193
000380 66 d3 14 bf 1b 56 5a be 26 b2 dd 3d ad 69 4a 3e
       -0.5813507 -0.21321909 0.10824995 0.19766875
000390 43 e2 6a bd 37 03 0f 3e 14 bd 1f be 3e 6b d2 3a
       -0.057344686 0.1396607 -0.15599471 0.0016053689
0003a0 a4 7c b0 3e 34 e9 d0 3d 43 0b 8b bd 43 ca cf bc
       0.34470093 0.1020073 -0.067892574 -0.025365
0003b0 61 d4 b0 3c a6 bf 8b 3d db 09 37 bd 61 c6 17 3e
       0.021585645 0.068236634 -0.044687133 0.1482177
0003c0 ed 62 37 3d 29 4b bb 3e 56 0b e9 bd 08 be 83 bd
       0.044772077 0.3658078 -0.11379115 -0.0643273
0003d0 a4 e4 1e 3e 76 69 d9 3c 5a d5 aa bd 01 f2 44 be
       0.15516907 0.026539546 -0.08341475 -0.19232942
0003e0 89 2e cb bc 5e 7f 40 be e5 19 00 be 4a d8 01 3c
       -0.024802463 -0.18798587 -0.12509878 0.0079251025
0003f0 51 8f ae bd ab 0a f4 3e 21 29 fe bd ba 09 4c bd
       -0.08523429 0.4766439 -0.124101885 -0.049813963

fc2.bias f4 [32]
000000 62 fa b8 3d 22 12 1e bd 87 5d 7c 3e 7d 37 85 3d
       0.09032132 -0.03859151 0.24645053 0.06504724
000010 30 99 5f 3e 7c 3c ea 3d 7d 77 ca 3b 33 6b 09 3e
       0.2183578 0.11437318 0.006178795 0.134198
000020 a3 1d ab 3e 38 ab 16 3e ae da 9d 3e a9 ab 75 39
       0.3342105 0.14713752 0.30830902 0.00023428969
000030 66 e1 3d 3e 3e d5 af 3d 7d 67 1d bd c1 94 57 3d
       0.18543014 0.085855946 -0.038428772 0.052632097
000040 96 cb 90 bd 92 c8 5e bc 63 7e a3 3c c7 6a f5 3c
       -0.07070081 -0.013597624 0.019957727 0.029958142
000050 38 7a 35 3e d7 17 5f 3e a8 a7 87 3d 3e b0 14 3e
       0.17722404 0.21786438 0.06623775 0.14520356
000060 ac e0 29 3d e7 7c 96 bd ea 9b b0 3e 08 4b 8b bc
       0.04147403 -0.07348042 0.34493953 -0.017003551
000070 4d ed da 3d 04 eb c7 3d 6d 3f 47 bc 12 90 44 3e
       0.10689793 0.097616225 -0.012161118 0.19195583

fc3.weight f4 [16, 32]
000000 c9 1c 29 bd 8b 98 e2 be e9 a3 d8 3d d4 53 93 be
       -0.041287217 -0.44257006 0.105781384 -0.28774893
000010 9f b9 84 be 9e fb 9a 3e 53 3c 91 3e b8 08 eb 3d
       -0.25922868 0.30270094 0.28366336 0.11476272
000020 06 2e 49 3d d3 0b 23 bd 9e 0e 23 3e f9 d6 8f bd
       0.049116157 -0.0398062 0.15923545 -0.07023425
000030 e8 21 1d be b6 3a a0 3d ef cf 8d bd 63 7d b0 3e
       -0.15344965 0.07823698 -0.06924426 0.34470662
000040 13 99 1c be 3a f6 a3 be af 34 2b be 11 10 7d be
       -0.15292768 -0.32023793 -0.16719316 -0.2471316
000050 b2 06 24 be 16 e6 5f 3d 95 c3 26 bf 7a 32 aa bc
       -0.16018179 0.054662786 -0.65142184 -0.020776022
000060 67 db 82 3e 73 67 8c be 20 e8 26 3a 21 b2 83 be
       0.25558016 -0.27422675 0.0006366987 -0.2572184
000070 92 7e c9 3d 68 52 a9 be 65 dd 80 bd 91 5c 9c 3d
       0.098385945 -0.33070683 -0.06292228 0.07634843
000080 b4 a5 15 be 4e 0a b2 3d 4e a4 06 be 54 00 96 bd
       -0.14613992 0.08693372 -0.13148615 -0.07324281
000090 d8 96 0d 3d 08 2e f9 3c 19 73 14 3e 00 b0 8a b8
       0.034567684 0.030417457 0.14497031 -6.613135e-05
0000a0 9c e3 89 bd 4b ba 95 bd e0 d3 a9 3b c8 bb 07 be
       -0.06732866 -0.07310923 0.005182728 -0.13255227
0000b0 02 ee 0d be 2d e7 9a bd 60 cd 94 3b e6 7f f4 bd
       -0.13860324 -0.075636245 0.004541084 -0.11938457
0000c0 e8 a9 ce bd 37 3f 01 3e 8b 48 27 3e 7c ce 62 bd
       -0.10091001 0.12621771 0.16336267 -0.0553727
0000d0 a4 4d 1b be 97 9b 8a bd a0 1e 92 3d e0 fe 6a 3d
       -0.15166336 -0.06767958 0.071347475 0.057371974
0000e0 b8 76 60 bd 60 6d 1f be ac b8 59 bd 60 e6 21 bd
       -0.05480072 -0.15569067 -0.053154632 -0.039526343
0000f0 0e 7c d0 3d 2c 86 b3 bd 6a 48 d9 3d c8 e2 c8 3c
       0.101799116 -0.08765826 0.10609515 0.0245222
000100 29 e4 97 bd 63 6b ae be 11 a2 91 3d 58 c7 46 3d
       -0.07416565 -0.34066305 0.0711099 0.048529953
000110 a8 1d b3 3d 11 eb 73 be 9b 2b 85 be 76 09 28 be
       0.08745891 -0.2382014 -0.2600983 -0.16409859
000120 37 6f 20 be b4 5f cd bd 06 77 86 bd e7 4e 1f 3e
       -0.15667425 -0.100280195 -0.06565671 0.15557443
000130 8f bf 86 be 43 43 cc 3d d3 d3 2b 3e b4 3c 37 3d
       -0.26318023 0.09973767 0.16780023 0.044735625
000140 55 c8 e1 bd c2 92 b7 3a fc 13 2e 3d b7 52 98 3d
       -0.110245384 0.0014005529 0.042499527 0.074376516
000150 2c c1 19 be 0a 70 9d bd 92 ed 51 bd 2c 2e 1d be
       -0.15015095 -0.076873854 -0.051251955 -0.15349644
000160 18 aa c8 3d 72 da 08 be 2f 2f 47 be 07 36 ad bc
       0.09798068 -0.1336458 -0.19451593 -0.021143926
000170 38 01 2e 3e c8 d1 08 3e 88 71 f0 bd 01 04 03 3e
       0.16992652 0.13361275 -0.11740404 0.12794496
000180 8d 43 17 3f 3d 12 d2 3d 6d f6 14 3d f3 52 7a 3e
       0.5908745 0.10257385 0.036367822 0.24445705
000190 56 fe af 3d 20 d5 43 be 89 a7 11 bf 52 0f 45 be
       0.085934326 -0.1912427 -0.56896263 -0.19244125
0001a0 31 4d 39 be b1 04 15 bd 1c 9f 16 3e e7 6a 80 3e
       -0.18095852 -0.036381427 0.14709133 0.2508156
0001b0 e8 76 18 3f aa db c7 bd 99 c4 4b bd c8 51 f1 bd
       0.59556437 -0.097586945 -0.049748037 -0.11783177
0001c0 c0 85 55 3c 65 9e 27 be 51 a0 ae bd 8e a5 33 3e
       0.013032377 -0.16369016 -0.08526672 0.17543623
0001d0 5c a2 7b bd f0 dc e3 3d 33 0b ac 3e 8d 97 4d 3e
       -0.061434135 0.11126125 0.33602294 0.20077343
0001e0 14 fb 72 bc 5b 69 d9 3e d4 d4 43 3d 27 c8 34 bf
       -0.0148303695 0.42463192 0.04781039 -0.7061791
0001f0 64 1f a0 be d3 40 fa 3d 9f f4 ef bd b6 48 e0 bd
       -0.3127395 0.122193955 -0.1171658 -0.109513685
000200 f5 76 0e 3f 80 22 a9 3d c7 3f d7 3e b8 d7 b8 3e
       0.55650264 0.082585335 0.42040846 0.3610208
000210 76 7e ef 3d 6a 2c 00 3f b4 3f 9b 3c cc c0 62 3c
       0.116940424 0.5006777 0.018951274 0.013839912
000220 27 62 91 3e e4 3c 9c 3e 8c 0c 28 3e 52 06 8c 3e
       0.28395197 0.30515206 0.16411036 0.27348572
000230 ed e3 c2 3e dc 49 a4 bd a1 cd 73 3d 3e ba c9 be
       0.3806452 -0.080219 0.059522275 -0.39399904
000240 c5 a3 05 be 24 71 46 be ea e7 3f bd 04 0e 78 3e
       -0.13050754 -0.19379097 -0.04685203 0.24224097
000250 cb bc 34 3e b3 27 85 3e 60 27 cd bd 31 83 b5 3d
       0.17650144 0.2600685 -0.10017276 0.088629134
000260 77 8c 8f be 38 90 18 3e d8 2e 94 3e 55 c0 76 be
       -0.28036854 0.14898765 0.2894199 -0.24096806
000270 92 ce bd 3d 62 12 a4 3d 36 3b e2 bc d8 7b 63 3d
       0.09267916 0.08011319 -0.027616125 0.05553803
000280 46 38 82 be 70 f2 91 be b5 1d 8d be 80 d1 61 3e
       -0.25433558 -0.28505278 -0.27561727 0.22052574
000290 50 6e b2 3b 7b 8b af be b7 84 8d be 94 95 82 3e
       0.005445279 -0.34286103 -0.27640316 0.25504744
0002a0 bb d2 5b 3d 27 85 4b be 01 ca 34 be b8 bf ef bd
       0.053667765 -0.19875012 -0.17655183 -0.11706489
0002b0 35 50 5d be e6 72 49 be b6 53 4b bd e4 2f 0e 3f
       -0.21612628 -0.19672737 -0.04964038 0.55541825
0002c0 20 70 f9 3c ae 89 18 bd ea 51 c9 3b b3 2f cc 3e
       0.030448973 -0.037240677 0.006143798 0.39880142
0002d0 fa ab 47 3c 84 80 bb bd 91 18 08 3d 9f 49 95 bd
       0.0121869985 -0.09155372 0.033226553 -0.07289433
0002e0 b3 be 83 bd e7 02 1b be ed 0a a7 bd 5f f6 8a be
       -0.06432857 -0.15137826 -0.08156381 -0.2714109
0002f0 1a bb fb 3e e9 92 6a be c5 60 17 3e 19 0e 0d 3e
       0.49166185 -0.22907604 0.14783008 0.13774909
000300 d8 a7 96 3c 6f fd b6 3c 26 95 58 3d 88 35 db 3c
       0.018390581 0.022337643 0.052876614 0.026758924
000310 27 88 05 be 88 65 ba 3e 44 22 09 be e2 f3 b9 3d
       -0.13040219 0.36405587 -0.13391978 0.0907972
000320 48 9e 23 3e ce 75 59 bc 51 43 c6 3d 5c a3 2a 3e
       0.15978348 -0.013272716 0.09680808 0.16663879
000330 ba 6f 00 be db 78 77 3e 6f d3 af bd d1 a2 10 bd
       -0.1254262 0.24167196 -0.0858525 -0.035311524
000340 3c 29 71 3d 58 f1 a6 bd ef 0d c6 3d 07 6e 2b be
       0.058877215 -0.081515014 0.09670626 -0.16741191
000350 e5 67 23 3e 16 99 30 3e 79 03 5c bf a4 0e d7 3d
       0.15957601 0.17245898 -0.859428 0.10500839
000360 86 e0 42 3d 1b 40 fa 3e be cf 2d bd fb b4 4f be
       0.047577403 0.48877034 -0.042434447 -0.20283882
000370 eb 6f e8 be a1 c0 a4 3d 3a 7d f5 3d ec 89 55 3e
       -0.45397887 0.080445535 0.11986776 0.20853394
000380 46 93 8d be e7 ed f4 bd 6f 1d 15 be 26 f2 05 be
       -0.27651423 -0.11959439 -0.1456201 -0.13080654
000390 5b 15 e9 bd b6 10 e3 be 5f 1c 7a bd ae 46 b8 3e
       -0.11381026 -0.44348687 -0.061062213 0.35991424
0003a0 fd d7 ea bd 8c 14 c7 bb 4f b5 92 bd 75 5e ad be
       -0.11466978 -0.0060754474 -0.07163488 -0.33861127
0003b0 c7 ff 88 bc bc d2 0a 3e 30 7d 0c be 80 72 98 3e
       -0.016723527 0.13556951 -0.1371963 0.29774857
0003c0 62 a4 ce 3d 46 6f d5 be b0 99 4a bc 1b ef 60 3e
       0.10089947 -0.41686457 -0.0123657435 0.21966211
0003d0 c3 26 b3 bb a1 95 97 bc 14 e0 ed 3d f5 e7 56 3e
       -0.0054672672 -0.018503966 0.11615005 0.20986922
0003e0 3e 37 80 3e 50 f2 fe bd 73 9a 24 3e 88 83 e3 be
       0.25042146 -0.12448561 0.16074543 -0.44436288
0003f0 73 01 06 bd b9 66 c3 be 38 6c f1 3d 20 92 e0 3e
       -0.032716226 -0.3816431 0.11788219 0.43861485

fc3.bias f4 [16]
000000 4d d4 57 bd ed 49 13 be 4a 04 7b 3a f3 68 c9 3d
       -0.0526927 -0.14383669 0.0009575529 0.098344706
000010 4d 1e 02 3f 82 2d 3a 3e f3 63 87 bd fd ab 5d bc
       0.50827485 0.18181422 -0.06610861 -0.013529775
000020 70 f0 df 3d c2 99 44 3e 78 ea f2 bc f3 9f 36 3e
       0.10934532 0.19199279 -0.029652819 0.17834453
000030 20 48 e5 3c 0c bf 0d be f8 20 81 be d9 0d 2f 3e
       0.027988493 -0.1384241 -0.25220466 0.17095126

fc4.weight f4 [4, 16]
000000 5c fb ac 3e 7c 95 aa bd 6e 65 82 3e 3f ee 34 3e
       0.33785522 -0.08329293 0.2546801 0.17669009
000010 97 6b bd 3e c3 e4 de be a6 73 95 3b ae fb f1 be
       0.36996147 -0.43533906 0.0045609055 -0.4726233
000020 09 2d 27 3d d1 b6 cc bd 0d 2d b6 be 01 e9 b7 3e
       0.040814433 -0.09995807 -0.35581246 0.35919955
000030 e6 4b 61 bd 42 0f 6b be 74 e9 13 be 45 05 84 3e
       -0.055004023 -0.22955039 -0.14444524 0.2578527
000040 75 73 d0 3e 12 8e 7a 3e 4d b8 71 3e 6c 35 91 3e
       0.40713087 0.24468258 0.23605461 0.2836107
000050 7c 94 c2 3e ed 4c 66 be 1d 43 f4 3d b4 0b 40 be
       0.3800391 -0.22490282 0.11926863 -0.18754464
000060 2a db 43 bd 2a ef c2 bc 39 42 6d be 90 42 48 3e
       -0.047816433 -0.023795683 -0.23169793 0.19556642
000070 f3 cd 3a 3d dc e6 24 be 7e 72 2f be 5b e4 d3 3e
       0.045606565 -0.16103691 -0.17133519 0.4138516
000080 ba c4 16 bd e0 af b0 3d 58 70 32 bd 80 7e ca 3e
       -0.036808707 0.086272955 -0.04356417 0.39549637
000090 0c 3d 7f 3e 78 06 21 bf 0c 1a 6f 3e 10 52 66 be
       0.24925631 -0.62900496 0.2334978 -0.22492242
0000a0 28 ec bf 3e 30 35 e4 3d 2b e9 e8 bc 31 40 2a 3d
       0.3748486 0.11142957 -0.028431496 0.041565124
0000b0 ed 8f 60 3d 78 95 79 be 02 24 fd be cb 98 1f bb
       0.05482476 -0.24373424 -0.49441534 -0.0024352546
0000c0 02 70 a1 3e 00 bc 9e 3c 42 45 0d 3e 7f 1f 35 3e
       0.31530768 0.019376755 0.13795951 0.17687796
0000d0 29 ba 9d 3e 55 95 90 be f2 de ef 3e 05 a8 b8 bd
       0.3080609 -0.2823893 0.4684978 -0.09016422
0000e0 6b ec 47 3d b1 35 b3 3e 13 43 d3 be a0 5c 76 3e
       0.04880945 0.350019 -0.4126211 0.24058771
0000f0 b3 63 2e bd a0 90 44 be b9 d8 80 3d 75 b8 28 be
       -0.04257555 -0.19195795 0.062913366 -0.16476615

fc4.bias f4 [4]
000000 95 38 fd 3d 17 65 97 3e da 30 8a 3e 02 63 db 3d
       0.12364308 0.29569313 0.26990396 0.107122436
