checkpoint_saved.pth (torch_old, 21653 bytes, 8 tensors)

fc1.weight f4 [64, 37]
-0.06334567 0.058108475 -0.07244045 0.06791604 -0.036080528 0.06813073 0.015940232 0.20003083
-0.29388627 -0.024028141 0.108813636 -0.21622965 -0.45011085 0.055013064 -0.3770891 0.12675826
-0.0031741566 0.023148874 -0.091128 0.08569815 -0.050195232 -0.12767671 0.15541162 0.3521227
0.17777872 -0.081067964 0.09744082 -0.20052654 0.12987153 0.09330517 0.07945382 -0.0117529165
-0.07109992 -0.14708406 -0.22016984 -0.124172375 -0.022851335 0.15153264 0.009106236 0.12636138
0.32435226 -0.046221502 -0.317372 0.080529705 0.07934442 0.25547457 0.51751655 0.10821175
0.1890223 -0.031615306 -0.069980696 -0.27011064 0.15134925 0.06343355 -0.15943874 0.06701092
-0.13189851 -0.09156677 0.05690402 -0.0092311315 -0.079094194 -0.150222 0.10996154 0.10218387
-0.21921624 -0.13960241 -0.14785974 0.012186325 0.3706801 0.03175677 -0.38675675 -0.6326928
-0.027978593 -0.0057763485 0.26282313 -0.042347472 -0.011170863 0.060916785 -0.39711332 0.11381578
-0.002613408 -0.0012675588 -0.0019014723 -0.25051892 0.21567097 -0.28909045 -0.012865769 0.05848302
-0.23917289 -0.03477213 0.0022696 0.22943659 0.06471431 0.12256631 -0.240296 0.104018874
-0.086174816 0.13754153 -0.14816621 0.022618147 -0.004767327 0.0109965205 0.3480537 0.15598081
-0.12150252 0.067141086 -0.18805343 -0.06908231 0.19829847 0.17853028 -0.036808487 0.05271184
0.09853076 0.112196736 0.08931544 -0.03090257 -0.015875889 0.025986407 0.07227544 0.07970377
0.106313065 -0.015751565 -0.026396632 0.05541567 0.117636815 0.16962425 -0.07655332 -0.06831418
-0.07706212 -0.028841196 0.033375863 0.43215287 -0.7968187 -0.5556168 -0.78408617 -2.7240994
0.024748316 0.07441837 0.047098484 0.13535026 0.056566533 0.025889734 0.12221103 0.1199642
0.19291534 0.17654505 0.019459516 -0.003623666 0.01116175 -0.1438424 -0.35198706 -0.19197723
-0.057196766 0.030403558 -0.062463623 -0.13448374 0.14739399 0.33432612 0.14598598 -0.18784371
-0.064837255 -0.39961207 -0.64219093 0.070998006 -0.29257315 -0.16780947 -0.18113506 -0.022210045
0.007996911 -0.39056957 0.037617095 -0.06559991 -0.10398995 0.0067293425 -0.13836057 0.052819494
-0.06590281 0.27349943 0.13155608 0.050792813 -0.17826806 -0.18154143 0.16540244 0.16888821
0.0008591645 0.1153372 -0.10034671 -0.13871163 0.05426266 0.0680131 0.25415137 0.05516251
-0.512493 -0.5648982 -1.7691779 -0.2329718 0.060955733 -0.047662403 -0.02347348 0.07182
-0.033438697 0.0134842135 -0.15977941 0.19694579 -0.004006435 0.19617316 0.007975374 0.09515254
-0.122659855 -0.18988447 -0.15673697 0.13593137 0.09407565 0.0023509446 -0.0024544087 0.0048305
0.036298465 0.16570567 0.0077075236 -0.20520578 0.11013031 -0.024114767 -0.004225403 -0.048708066
-0.0228791 0.29388672 0.19854027 0.25200632 -0.13632813 -0.5031161 -0.23846677 -1.080991
0.15231197 -0.16808182 0.093560345 -0.14680173 -0.16542831 -0.3509076 -0.16599597 0.262492
0.2230424 0.2837099 0.01747987 -0.21758896 0.049617756 0.12068919 -0.018108536 0.038440138
-0.5176547 -0.12326962 0.022782834 -0.11713908 0.2051885 0.013164784 -0.029510088 0.017799985
00000000: 60bb 81bd 2703 6e3d a95b 94bd 9117 8b3d
00000010: 2dc9 13bd 2088 8b3d 1795 823c e2d4 4c3e
00000020: 4378 96be aad6 c4bc afd9 de3d 4e6b 5dbe
00000030: ee74 e6be 6155 613d d311 c1be ebcc 013e
00000040: 8305 50bb b5a2 bd3c 51a1 babd 8382 af3d
00000050: 8499 4dbd afbd 02be 3924 1f3e 6d49 b43e
00000060: a00b 363e f606 a6bd 0d8f c73d d456 4dbe
00000070: 0bfd 043e c816 bf3d afb8 a23d 4e8f 40bc
00000080: d69c 91bd 349d 16be 3474 61be 164e febd
00000090: b932 bbbc 5f2b 1b3e 5232 153c e164 013e
000000a0: 8011 a63e c252 3dbd 957e a2be c2ec a43d
000000b0: 547f a23d 90cd 823e f77b 043f 1f9e dd3d
000000c0: 108f 413e 0d7f 01bd 0a52 8fbd f14b 8abe
000000d0: 4cfb 1a3e 73e9 813d e943 23be 053d 893d
000000e0: 6710 07be 5c87 bbbd 3114 693d 2c3e 17bc
000000f0: 23fc a1bd ccd3 19be 8433 e13d c745 d13d
00000100: 397a 60be eff3 0ebe 8b68 17be 27a9 473c
00000110: c8c9 bd3e 6313 023d fb04 c6be 28f8 21bf
00000120: 5d33 e5bc 8647 bdbb c190 863e 8b74 2dbd
00000130: ff05 37bc e183 793d 7052 cbbe 3f18 e93d
00000140: b645 2bbb 3724 a6ba d33a f9ba 0444 80be
00000150: dad8 5c3e aa03 94be f2ca 52bc e48b 6f3d
00000160: bde9 74be 396d 0ebd 92bd 143b 6df1 6a3e
00000170: f088 843d 0c04 fb3d 2810 76be d907 d53d
00000180: 6c7c b0bd b0d7 0c3e e2b8 17be b149 b93c
00000190: 3d37 9cbb c02a 343c 1834 b23e 6fb9 1f3e
000001a0: 50d6 f8bd 4481 893d 1491 40be 077b 8dbd
000001b0: c10e 4b3e a4d0 363e 7fc4 16bd 5fe8 573d
000001c0: 7fca c93d 67c7 e53d 03eb b63d 6327 fdbc
000001d0: 270e 82bc 72e1 d43c 2505 943d bb3b a33d
000001e0: aaba d93d 6d09 81bc c03d d8bc 8bfb 623d
000001f0: 92eb f03d fbb1 2d3e fdc7 9cbd 4ee8 8bbd
00000200: bfd2 9dbd 5f44 ecbc 21b5 083d 2443 dd3e
00000210: 4ffc 4bbf e73c 0ebf dfb9 48bf a557 2ec0
00000220: fbbc ca3c a968 983d 57ea 403d 4299 0a3e
00000230: 4fb2 673d b516 d43c c749 fa3d caaf f53d
00000240: 998b 453e 3ac8 343e 9069 9f3c 077b 6dbb
00000250: c6df 363c 6c4b 13be a637 b4be ae95 44be
00000260: 2847 6abd e210 f93c dbd9 7fbd 1bb6 09be
00000270: 73ee 163e cb2c ab3e 597d 153e 1a5a 40be
00000280: 65c9 84bd f499 ccbe a066 24bf 6767 913d
00000290: 26cc 95be 3fd6 2bbe 787b 39be d7f1 b5bc
000002a0: 7a05 033c bcf8 c7be 6214 1a3d 3f59 86bd
000002b0: aff8 d4bd d181 dc3b 65ae 0dbe 4159 583d
000002c0: 0df8 86bd 1e08 8c3e a3b6 063e 200c 503d
000002d0: e78b 36be ffe5 39be 425f 293e 08f1 2c3e
000002e0: 8e39 613a e935 ec3d 9382 cdbd 6c0a 0ebe
000002f0: 8642 5e3d 744a 8b3d 2120 823e 16f2 613d
00000300: be32 03bf 2b9d 10bf 6c74 e2bf 2990 6ebe
00000310: b8ac 793d a739 43bd 754b c0bc 5d16 933d
00000320: 04f7 08bd e4ec 5c3c 379d 23be 28ac 493e
00000330: 6a48 83bb 9ee1 483e 25ab 023c 56df c23d
00000340: 1735 fbbd 1371 42be a87f 20be 9831 0b3e
00000350: bcaa c03d 4e12 1a3b 25da 20bb 2c49 9e3b
00000360: b3ad 143d bfae 293e 658f fc3b 7721 52be
00000370: 008c e13d 558c c5bc 4075 8abb 1c82 47bd
00000380: f36c bbbc 5278 963e 244e 4b3e f906 813e
00000390: 9a99 0bbe 37cc 00bf a230 74be ea5d 8abf
000003a0: abf7 1b3e a41d 2cbe 919c bf3d 3153 16be
000003b0: 0a66 29be 29aa b3be d9fa 29be 5a65 863e
000003c0: 3a65 643e 6d42 913e f231 8f3c a4cf 5ebe
000003d0: fd3b 4b3d e52b f73d 5a58 94bc 6873 1d3d
000003e0: 0585 04bf c874 fcbd 11a3 ba3c 9de6 efbd
000003f0: ef1c 523e 1bb1 573c 24bf f1bc 46d1 913c

fc1.bias f4 [64]
0.070856795 0.008610523 -0.1420726 -0.03201236 0.09989061 -0.15248424 -0.06022463 0.0038247427
-0.104542926 -0.119194575 0.32354316 0.15700543 0.15950845 0.2394746 0.10984958 -0.116748884
-0.0075573563 -0.04757435 0.15029897 -0.115594074 0.0015485649 -0.021765232 -0.013855361 -0.123941615
-0.15573564 0.14739609 -0.0064041624 -0.020673536 0.17869215 0.10837571 -0.244685 -0.17237124
0.13342613 -0.0019911309 -0.15767673 0.1299957 -0.06806959 0.19644645 0.035358097 -0.3352724
-0.08843775 0.15115744 0.046787962 0.026406066 0.06417773 -0.026210068 0.111386314 -0.18274328
-0.1754856 0.06304371 -0.13602659 0.12927675 0.14933336 -0.13708846 -0.1552369 0.062186327
-0.020106498 0.01706777 -0.1165379 -0.13356148 0.04329685 -0.023167446 0.10332547 -0.019693725
00000000: 5e1d 913d 2713 0d3c 7b7b 11be 641f 03bd
00000010: 7393 cc3d d424 1cbe 1aae 76bd 89a8 7a3b
00000020: 9a1a d6bd 491c f4bd 73a7 a53e 08c6 203e
00000030: 2f56 233e d438 753e d1f8 e03d 0a1a efbd
00000040: b3a3 f7bb 52dd 42bd f9e7 193e 96bc ecbd
00000050: 37f9 ca3a 004d b2bc 9901 63bc 1ad5 fdbd
00000060: 2a79 1fbe 00ef 163e 02da d1bb 8c5b a9bc
00000070: 13fb 363e 16f4 dd3d b48e 7abe 1682 30be
00000080: dca0 083e a27d 02bb 0276 21be 981d 053e
00000090: 1268 8bbd 4229 493e a7d3 103d d3a8 abbe
000000a0: da1e b5bd 04c9 1a3e bca4 3f3d 8951 d83c
000000b0: 9d6f 833d 7fb6 d6bc 821e e43d 0e21 3bbe
000000c0: 7fb2 33be 101d 813d 8e4a 0bbe 2061 043e
000000d0: d8ea 183e eb60 0cbe 6cf6 1ebe 17b7 7e3d
000000e0: 62b6 a4bc b5d1 8b3c 6cab eebd 57c4 08be
000000f0: 0a58 313d a8c9 bdbc 4e9c d33d bc54 a1bc

fc2.weight f4 [32, 64]
-0.015637847 0.078066915 0.01780819 0.7412808 0.0952401 -0.10000576 -0.334633 0.6279348
0.1170895 0.31481862 0.053948883 -0.29552647 -0.038420174 0.13342191 -0.0032590216 0.104281224
-0.5052762 0.204178 -0.0012363297 -0.24868645 -0.17849918 -0.5173734 -0.07881617 -0.15359789
-0.32461753 -0.0877674 -0.07745969 -0.12424228 -0.26233044 0.0061372616 0.2283227 -0.016953873
0.07203072 0.05574149 0.0984831 -0.5862417 -0.04294551 0.13573997 0.03801118 0.009990713
0.009351369 -0.19534048 0.116830386 0.093866624 0.13149023 -0.24276209 -0.09092364 0.15262617
-0.15396735 -0.2235148 -0.12591298 -0.04438949 -0.15172784 -0.25629142 0.06904501 0.5959311
0.03917569 -0.07986194 -0.03542572 0.17183496 0.008181667 -0.16008939 -0.17544085 0.14426807
0.24943537 0.1028312 -0.09905035 -0.5129214 0.34991762 0.01844166 -0.38486284 0.7092581
-0.019503452 0.27864143 0.097286545 -0.21794634 -0.29086867 0.04644178 -0.020279432 -0.003646759
-0.32562423 -0.053923678 -0.54641545 0.028526977 -0.32186168 -0.19398844 0.050094847 -0.31616876
0.008177599 -0.2840512 -0.2593437 -0.39279035 0.20407495 -0.29779342 -0.09181378 0.13088848
0.07492916 -0.109424815 0.10038696 -0.59096307 0.060262844 0.0834155 0.1525073 0.06356073
-0.27261508 -0.39265475 0.02762026 -0.01646834 -0.14759009 -0.31392485 -0.12728244 -0.43897226
-0.1705807 -0.6418886 -0.17424332 -0.36136308 -0.022680642 -0.20599802 0.25492135 -0.7255699
-0.19782817 0.09509734 0.22106153 0.33925614 -0.3316384 -0.043335997 -0.098959215 -0.2686365
-0.04668097 -0.002551612 0.0788496 0.39789292 0.08134701 0.13170528 -0.11548469 0.2301377
0.084166005 0.03875548 0.24764031 -0.03263916 0.17088439 0.26371342 0.21049021 0.026730986
-0.047695197 0.03781792 0.16369857 -0.24590866 0.01940403 0.13538817 0.115871996 0.20822269
1.0202639e-05 0.19679607 0.50354695 0.38435113 -0.024896825 0.117085524 0.20680434 0.09147198
-0.49841538 -0.03868657 -0.06531484 0.35404316 0.21428797 0.2767351 0.13374649 0.19164221
0.13057646 0.3836533 -0.28330737 -0.059966926 0.06332454 0.04954837 0.15476826 0.038234554
-0.022245813 -0.041978948 -0.0289847 -0.02341381 0.006576122 -0.23484877 0.09128954 0.19887008
0.072518274 -0.028950412 0.199337 0.20889491 -0.072853744 0.2785463 0.17132129 0.09274504
-0.08144192 -0.33002883 0.05980543 -0.6388089 0.06961966 0.10202426 0.06930675 -0.46599606
-0.06029083 -0.25976598 -0.06249534 0.3130049 -0.34612748 0.21834919 0.07910479 0.0088248635
0.044231474 -0.07259315 -0.029831419 -0.14867322 0.25100982 0.11157921 0.09796364 -0.095847994
0.36661795 -0.07142947 -0.30375823 0.08128277 -0.026397033 -0.081065305 -0.04200209 -0.13915116
-0.17012703 -0.4277558 -0.044714276 -0.16710868 -0.33654094 0.10065076 0.026625901 -0.07709315
0.17759117 0.29160777 -0.33305064 -0.050404023 -0.009983088 0.12203575 -0.022970721 -0.05779603
-0.08930073 0.19075514 -0.1281075 0.01699498 0.17784552 0.23093139 -0.065387145 -0.23205528
-0.11662482 -0.065249294 -0.3692592 0.030949228 -0.1790197 -0.2367303 -0.29778022 -0.0208348
00000000: f11a 80bc 8ce1 9f3d 7be2 913c 94c4 3d3f
00000010: 3e0d c33d d2cf ccbd 0455 abbe 56c0 203f
00000020: 9fcc ef3d e82f a13e 81f9 5c3d 3f4f 97be
00000030: 795e 1dbd c19f 083e 4f95 55bb 6591 d53d
00000040: c859 01bf 0a14 513e 570c a2ba a9a7 7ebe
00000050: 7dc8 36be 9572 04bf 5f6a a1bd c448 1dbe
00000060: 4534 a6be 65bf b3bd 30a3 9ebd bd72 febd
00000070: 2d50 86be 151b c93b 6dcd 693e d9e2 8abc
00000080: d884 933d 3051 643d 82b1 c93d f013 16bf
00000090: a2e7 2fbd 6bff 0a3e 9cb1 1b3d 16b0 233c
000000a0: 7c36 193c 5607 48be c544 ef3d 253d c03d
000000b0: 60a5 063e a096 78be 2c36 babd 094a 1c3e
000000c0: 9ea9 1dbe 10e1 64be 55ef 00be c1d1 35bd
000000d0: 8b5e 1bbe a138 83be 7867 8d3d f18e 183f
000000e0: b076 203d a88e a3bd 8f1a 11bd 81f5 2f3e
000000f0: 660c 063c 79ee 23be c4a6 33be 02bb 133e
00000100: fc6b 7f3e 2a99 d23d e9da cabd d14e 03bf
00000110: 6728 b33e f712 973c be0c c5be f091 353f
00000120: b4c5 9fbc 17aa 8e3e 2b3e c73d 532d 5fbe
00000130: bdec 94be bc39 3e3d 0d21 a6bc 77fe 6ebb
00000140: 38b8 a6be 13df 5cbd e2e1 0bbf 68b1 e93c
00000150: 0ecb a4be e8a4 46be 4130 4d3d dfe0 a1be
00000160: 56fb 053c 296f 91be b3c8 84be d11b c9be
00000170: 06f9 503e 6178 98be dd08 bcbd a107 063e
00000180: 7674 993d 1e1a e0bd ae97 cd3d 5b49 17bf
00000190: 2cd6 763d bfd5 aa3d e02a 1c3e 212c 823d
000001a0: 3494 8bbe 0b0a c9be e243 e23c 9de8 86bc
000001b0: db21 17be c2ba a0be 5456 02be f9c0 e0be
000001c0: b5ac 2ebe d052 24bf d76c 32be 9504 b9be
000001d0: c1cc b9bc 25f1 52be 0d85 823e f3be 39bf
000001e0: 7893 4abe 65c2 c23d f45d 623e fbb2 ad3e
000001f0: 82cc a9be 1681 31bd 21ab cabd b98a 89be
00000200: 8b34 3fbd f238 27bb e67b a13d 9fb8 cb3e
00000210: 4399 a63d c0dd 063e 3d83 ecbd 38a9 6b3e
00000220: 3a5f ac3d 11be 1e3d 6c95 7d3e a4b0 05bd
00000230: 51fc 2e3e 7205 873e bf8a 573e f1fa da3c
00000240: 0a5c 43bd f7e6 1a3d 99a0 273e 7bcf 7bbe
00000250: 33f5 9e3c 32a3 0a3e 4c4e ed3d 5438 553e
00000260: 002c 2b37 e984 493e 74e8 003f acc9 c43e
00000270: 6df4 cbbc 89ca ef3d 84c4 533e a955 bb3d
00000280: 4d30 ffbe cf75 1ebd c9c3 85bd 2545 b53e
00000290: 4e6e 5b3e 39b0 8d3e d7f4 083e db3d 443e
000002a0: d6b5 053e 356e c43e aa0d 91be e19f 75bd
000002b0: 4cb0 813d 3bf3 4a3d 927b 1e3e d69b 1c3d
000002c0: da3c b6bc 1ef2 2bbd 5271 edbc 52ce bfbc
000002d0: 827c d73b 327c 70be 03f6 ba3d 99a4 4b3e
000002e0: 7684 943d 6a29 edbc 001f 4c3e 8ce8 553e
000002f0: 5834 95bd 9f9d 8e3e d96e 2f3e 1df1 bd3d
00000300: 05cb a6bd 8af9 a8be 8af6 743d fb88 23bf
00000310: c194 8e3d 18f2 d03d b3f0 8d3d 0997 eebe
00000320: 84f3 76bd 0c00 85be 1dfb 7fbd 2e42 a03e
00000330: 9f37 b1be ee96 5f3e b101 a23d 2996 103c
00000340: 102c 353d b8ab 94bd 0561 f4bc cb3d 18be
00000350: 5c84 803e a483 e43d 29a1 c83d f44b c4bd
00000360: 59b5 bb3e 9d49 92bd 3386 9bbe 9577 a63d
00000370: 973e d8bc 9105 a6bd 620a 2cbd a47d 0ebe
00000380: c835 2ebe cf02 dbbe 5126 37bd 8a1e 2bbe
00000390: 184f acbe fc21 ce3d 901e da3c 03e3 9dbd
000003a0: 76da 353e 9d4d 953e 9d85 aabe 7374 4ebd
000003b0: 1b90 23bc e1ed f93d 182d bcbc 88bb 6cbd
000003c0: 4de3 b6bd 5155 433e 9d2e 03be 0e39 8b3c
000003d0: 231d 363e 4779 6c3e b2e9 85bd e69f 6dbe
000003e0: fed8 eebd 6ca1 85bd 8b0f bdbe 3c89 fd3c
000003f0: f150 37be 6e69 72be a676 98be bead aabc

fc2.bias f4 [32]
0.10601451 -0.03305777 0.31276664 0.10852033 0.3495549 0.06134362 0.07279327 0.028141718
0.37485301 0.22898835 0.41679764 0.06976128 0.14129174 0.05299411 -0.018776946 -0.0581542
-0.08692109 0.061967332 0.035455886 0.11491957 0.31947643 0.21048754 -0.101155795 -0.119396605
0.119841464 -0.15522537 0.39096072 -0.09419736 0.13019606 0.121788874 -0.0077378824 0.25564268
00000000: 231e d93d 9667 07bd f322 a03e e83f de3d
00000010: dcf8 b23e 7343 7b3d a314 953d 7689 e63c
00000020: bcec bf3e ec7b 6a3e 8066 d53e 01df 8e3d
00000030: c8ae 103e 5a10 593d 1cd2 99bc 1933 6ebd
00000040: af03 b2bd 75d1 7d3d 313a 113d f45a eb3d
00000050: 6a92 a33e 0c8a 573e c52a cfbd 3586 f4bd
00000060: 716f f53d 66f3 1ebe 012c c83e 8cea c0bd
00000070: 1e52 053e 726c f93d 108e fdbb 99e3 823e

fc3.weight f4 [16, 32]
-0.10368513 -0.15645738 0.027766488 -0.06602088 -0.13242286 0.07840378 0.040015552 -0.021489788
-0.0576889 -0.08580788 0.112658106 0.11063211 0.10418469 0.10848281 -0.092517726 0.03714464
-0.15292768 0.11454384 -0.16558872 -0.22441791 -0.19053397 0.054120794 -0.0048746034 -0.0057187187
0.021421935 -0.066901356 -0.09454311 -0.14109933 -0.041092128 -0.14551431 0.0009735046 0.104824156
-0.14613992 0.08693372 -0.13148615 -0.07324281 0.034567684 0.030417457 0.14497031 -6.613135e-05
-0.06732866 -0.07310923 0.005182728 -0.13255227 -0.13860324 -0.075636245 0.004541084 -0.11938457
-0.10091001 0.12621771 0.16336267 -0.0553727 -0.15166336 -0.06767958 0.071347475 0.057371974
-0.05480072 -0.15569067 -0.053154632 -0.039526343 0.101799116 -0.08765826 0.10609515 0.0245222
-0.0138157215 -0.26243877 0.051506784 0.0806345 0.08844713 -0.45187393 -0.6339418 -0.024793435
-0.10133186 -0.14082739 -0.1963023 0.062430784 -0.19709335 0.09973767 0.15197393 0.18560714
-0.110245384 -0.0068622883 0.042499527 0.22633635 -0.19893816 -0.040987432 -0.17326395 -0.19334172
0.06587759 -0.19398052 -0.27232468 0.0893835 0.21321233 0.043625023 -0.14852625 0.18998641
0.3417466 0.767174 0.033573836 0.3629516 0.08385138 -0.39145526 -0.30339852 -0.6786938
-0.16478395 -0.009295497 0.19102138 0.21371989 0.44725707 -0.0069354074 -0.077639595 0.41694713
0.06354866 -0.03705876 -0.07853786 0.12182723 -0.21998599 0.09747331 -0.094896585 -0.022880945
0.6869793 -0.0009402812 -0.0073143197 0.10612806 -0.12606555 0.043563012 -0.124084964 -0.12583104
0.36650145 0.36393636 0.4154313 0.40436533 0.18193027 0.1956687 0.36609286 -0.11437727
0.32103938 0.3098663 0.22567865 0.40795046 0.36258456 -0.16043004 -0.009693147 -0.47421378
-0.117461145 -0.043497503 -0.034995873 0.13786384 0.19377808 0.21590869 -0.2826255 -0.3223508
0.29956698 -0.045107793 0.29450452 -0.08579099 -0.1797537 0.03963422 -0.28860474 0.076809525
-0.019463738 -0.1761938 -0.5868341 0.24811526 -0.049190674 0.16677634 -0.10535686 0.12811486
0.014770258 -0.2691068 -0.24556099 -0.30258152 -0.16647482 -0.034706537 -0.023341045 0.4026663
0.030448973 -0.017754253 0.0057794335 0.20703949 -0.110960335 0.0049793296 -0.049508814 0.06425008
-0.060837734 -0.18820146 -0.360458 -0.34696454 0.40685335 -0.11232766 -0.11788584 0.17129105
-0.15506795 0.14645763 -0.054666054 -0.124449454 -0.04130278 0.0711494 -0.21028304 -0.021007461
0.056343686 -0.09051911 -0.0061507663 -0.06928282 -0.1185991 0.13844101 -0.12551989 0.033777297
0.058877215 -0.09879131 0.08535515 -0.15140313 0.15114899 0.07189775 -0.040915653 -0.1470498
0.00545159 0.062704325 -0.15619825 -0.002573328 -0.17576782 -0.18876956 -0.01919876 0.13561861
-0.175635 0.005409243 -0.25776958 0.14885801 -0.053114813 -0.15864992 -0.0044230474 0.31951267
-0.18569711 0.019382734 -0.107637905 0.025103262 0.018526893 -0.054829463 -0.10065493 -0.043475565
0.10089947 -0.027277842 -0.0123657435 0.21455735 0.05083605 -0.032771863 0.17191988 -0.049137082
-0.020900669 0.42663822 -0.023999378 -0.33978596 -0.08186574 -0.26441485 0.119763486 0.41937158
00000000: df58 d4bd 5d36 20be 8c76 e33c f535 87bd
00000010: dc99 07be 2992 a03d 59e7 233d 5a0b b0bc
00000020: 324b 6cbd 0bbc afbd 4bb9 e63d 1693 e23d
00000030: c85e d53d 3c2c de3d ef79 bdbd fa24 183d
00000040: 1399 1cbe f695 ea3d 1790 29be cfcd 65be
00000050: 561b 43be c4ad 5d3d 23bb 9fbb 1764 bbbb
00000060: 0e7d af3c 9403 89bd d19f c1bd 587c 10be
00000070: 3850 28bd b401 15be ca32 7f3a 0cae d63d
00000080: b4a5 15be 4e0a b23d 4ea4 06be 5400 96bd
00000090: d896 0d3d 082e f93c 1973 143e 00b0 8ab8
000000a0: 9ce3 89bd 4bba 95bd e0d3 a93b c8bb 07be
000000b0: 02ee 0dbe 2de7 9abd 60cd 943b e67f f4bd
000000c0: e8a9 cebd 373f 013e 8b48 273e 7cce 62bd
000000d0: a44d 1bbe 979b 8abd a01e 923d e0fe 6a3d
000000e0: b876 60bd 606d 1fbe acb8 59bd 60e6 21bd
000000f0: 0e7c d03d 2c86 b3bd 6a48 d93d c8e2 c83c
00000100: 565b 62bc 605e 86be c7f8 523d b323 a53d
00000110: c523 b53d 055c e7be 034a 22bf 9a1b cbbc
00000120: 1487 cfbd 0e35 10be 7803 49be 6cb7 7f3d
00000130: d7d2 49be 4343 cc3d 0e9f 1b3e cc0f 3e3e
00000140: 55c8 e1bd 0cdd e0bb fc13 2e3d b7c4 673e
00000150: 72b6 4bbe 70e2 27bd 1b6c 31be 5ffb 45be
00000160: d4ea 863d d4a2 46be 246e 8bbe b20e b73d
00000170: 5554 5a3e 27b0 323d 4417 18be cc8b 423e
00000180: 69f9 ae3e 8465 443f b884 093d cbd4 b93e
00000190: 46ba ab3d d36c c8be 0d57 9bbe e0be 2dbf
000001a0: 20bd 28be 244c 18bc 1c9b 433e 63d9 5a3e
000001b0: e1fe e43e 6a42 e3bb 8201 9fbd 187a d53e
000001c0: cd25 823d edca 17bd 75d8 a0bd 8e80 f93d
000001d0: 0244 61be 16a0 c73d 2459 c2bd d270 bbbc
000001e0: e0dd 2f3f 347d 76ba f6ac efbb ab59 d93d
000001f0: 5417 01be 216f 323d 4220 febd dad9 00be
00000200: 14a6 bb3e de55 ba3e 69b3 d43e f908 cf3e
00000210: ee4b 3a3e 605d 483e 8670 bb3e a13e eabd
00000220: 465f a43e cca6 9e3e 4e18 673e e2de d03e
00000230: afa4 b93e c647 24be 01d0 1ebc 26cc f2be
00000240: 788f f0bd 702a 32bd d557 0fbd 2e2c 0d3e
00000250: c36d 463e 2b17 5d3e 4ab4 90be 2a0b a5be
00000260: d860 993e f3c2 38bd 4cc9 963e 30b3 afbd
00000270: 5b11 38be 7e57 223d 00c4 93be 504e 9d3d
00000280: 6b72 9fbc 266c 34be c23a 16bf ed11 7e3e
00000290: 297c 49bd 6bc7 2a3e 56c5 d7bd 8b30 033e
000002a0: f4fe 713c 5ec8 89be 5774 7bbe f7eb 9abe
000002b0: 6078 2abe 7128 0ebd b835 bfbc 472a ce3e
000002c0: 2070 f93c 5e71 91bc 6761 bd3b 2902 543e
000002d0: 2c3f e3bd a529 a33b c1c9 4abd 8c95 833d
000002e0: fd30 79bd e2b7 40be f38d b8be 56a5 b1be
000002f0: 154f d03e 0b0c e6bd 226e f1bd ec66 2f3e
00000300: 22ca 1ebe fdf8 153e 83e9 5fbd 5bdf febd
00000310: 1b2d 29bd c7b6 913d 7054 57be d717 acbc
00000320: a3c8 663d 1562 b9bd 5e8c c9bb 27e4 8dbd
00000330: 16e4 f2bd 7bc3 0d3e 4988 00be 105a 0a3d
00000340: 3c29 713d 1953 cabd aece ae3d 6c09 1bbe
00000350: cdc6 1a3e 213f 933d 2c97 27bd 3994 16be
00000360: 40a3 b23b 206b 803d 6ff2 1fbe 48a5 28bb
00000370: 7bfc 33be cf4c 41be b846 9dbc 9bdf 0a3e
00000380: a9d9 33be 0540 b13b 60fa 83be 3c6e 183e
00000390: eb8e 59bd 2075 22be 36ef 90bb 2a97 a33e
000003a0: 6227 3ebe 8ac8 9e3c 4371 dcbd 5ba5 cd3c
000003b0: b6c5 973c dc94 60bd 2c24 cebd 6f13 32bd
000003c0: 62a4 ce3d c875 dfbc b099 4abc ecb4 5b3e
000003d0: 7639 503d ca3b 06bd c40b 303e f743 49bd
000003e0: e137 abbc 5370 da3e 589a c4bc 6df8 adbe
000003f0: 3aa9 a7bd 6261 87be 8f46 f53d dfb7 d63e

fc3.bias f4 [16]
-0.07626038 -0.14383669 0.07138786 0.22622226 0.5599118 0.065079994 -0.16065988 0.030250842
0.14503133 -0.16163398 0.09967668 0.22292748 0.032093734 -0.12255891 0.053188108 0.107251935
00000000: 672e 9cbd ed49 13be cc33 923d cfa6 673e
00000010: 6156 0f3f a948 853d 0684 24be 9dd0 f73c
00000020: 1883 143e 6183 25be 4a23 cc3d 1a47 643e
00000030: b874 033d 2a00 fbbd c6db 593d e7a6 db3d

fc4.weight f4 [4, 16]
-0.09341247 -0.08329293 0.07569152 0.23557372 0.430887 -0.5723765 0.024678336 -0.0560154
-0.028341984 -0.062136617 -0.19576888 0.2611136 -0.047970295 -0.24513611 0.23475942 0.17966896
0.05216934 0.24468258 0.21650785 0.30370915 0.35460722 0.019494373 0.07172209 -0.31173712
0.082361236 -0.20463116 0.26429027 0.25874755 0.058981508 -0.16103691 0.035539713 0.16265276
0.062124472 0.086272955 -0.3917726 0.4231384 0.2888495 -0.42742586 0.1836266 -0.03381501
0.40789798 -0.13171102 0.047196247 -0.033800386 0.04243335 -0.24373424 0.086907975 -0.14042053
0.07502387 0.019376755 0.08150581 0.015987637 0.2853514 0.04440546 0.010102773 -0.037181985
0.20050892 0.0079860855 -0.23571962 0.41291144 -0.038637906 -0.19195795 -0.31734413 -0.032439973
00000000: 094f bfbd 7c95 aabd 2804 9b3d 3d3a 713e
00000010: 399d dc3e 4487 12bf 392a ca3c 6770 65bd
00000020: 732d e8bc f782 7ebd a377 48be afb0 853e
00000030: 807c 44bd f604 7bbe c664 703e 24fb 373e
00000040: 85af 553d 128e 7a3e 3cb4 5d3e c47f 9b3e
00000050: 148f b53e aab2 9f3c 08e3 923d 029c 9fbe
00000060: 02ad a83d d58a 51be 0e51 873e 8f7a 843e
00000070: 9896 713d dce6 24be 1792 113d 728e 263e
00000080: 3b76 7e3d e0af b03d 6b96 c8be 99a5 d83e
00000090: 15e4 933e 90d7 dabe 9d08 3c3e 9c81 0abd
000000a0: 01d8 d03e 41df 06be da50 413d 4672 0abd
000000b0: 98ce 2d3d 7895 79be cffc b13d 66ca 0fbe
000000c0: 1da6 993d 00bc 9e3c 85ec a63d 81f8 823c
000000d0: 9419 923e 80e2 353d 1a86 253c 234c 18bd
000000e0: 3652 4d3e 12d8 023c 7c60 71be 2169 d33e
000000f0: c842 1ebd a090 44be ee7a a2be c7df 04bd

fc4.bias f4 [4]
0.2235555 0.2609596 0.32029623 0.11502256
00000000: bceb 643e 7f9c 853e defd a33e f390 eb3d
